Autocite/Training Data/triplet_model_2024-06-15_12-59-14.pth (torch, 4659 bytes, 1 tensors)

W f4 [768]
00000000: bfba 8640 dd8b 7040 fb56 9e40 764b 7540
00000010: 263c 17c0 6cb2 8840 ae69 9c40 91e9 9340
00000020: 455d 3840 3ff0 9240 e933 14c0 f209 b53f
00000030: 108e 25bf a723 a540 d953 9f40 2a9f 7940
00000040: a06e 8840 d28d 1b40 4eb2 9e40 9434 9c3f
00000050: 24a3 e43f f3b6 9e40 a297 1bc0 4987 6cbf
00000060: 37de 3f40 5369 9940 11ce 6d40 a50f 9f40
00000070: 7756 3ec0 0632 82c0 6b64 c9bf f284 0f40
00000080: 98c8 6940 b04a 9340 a24f 9a40 7ea8 9f40
00000090: 6e26 9140 1af8 4940 0e7e 7240 c4de 7f40
000000a0: c48b 863d 112d 8840 13be c83e b7f7 9940
000000b0: 8716 04c0 e7f0 7b40 4e05 67c0 032f 9940
000000c0: 5792 a2bf 11c4 84bf 528b 8f40 02f2 3bc0
000000d0: cc74 9c40 825a a340 0cbf 67bf fc0e a840
000000e0: c025 8140 bd8e 9140 1279 9540 ec80 04c0
000000f0: a54d 5ac0 5df5 a240 d9e1 3440 3655 b3be
00000100: c85d 9740 713d 8740 4276 8640 81ff 9540
00000110: 6af8 37c0 c7a8 a940 1e32 38bf 493a 5f40
00000120: 1581 8b40 dce4 9b40 7695 aa40 80a5 6940
00000130: c371 7040 d511 1b40 53e9 bd3e 43c4 203f
00000140: 773b 7740 195d 8f40 e223 7540 e0bf 5740
00000150: ecb0 a040 7be4 9e40 8173 0d40 d7c2 9740
00000160: ca8c 8b40 8e05 e83f 9486 2cbf f070 9940
00000170: f168 0640 2e5b a340 efaf a340 f05f f8bf
00000180: acdb c4bd 41b3 8d40 b4b6 7f40 cbaf 9640
00000190: 11e3 4ec0 3a1b 7f40 fca5 6340 4ce4 5440
000001a0: 793e 7ac0 9f01 9d3e cf1d 873f 2a1b a940
000001b0: 066b a740 b64f 7140 3df6 9840 1f98 a040
000001c0: 0716 9d40 540d 8640 3b39 9440 7644 9b3f
000001d0: 3f99 ad40 fbc1 3640 6268 8240 bc7c 9540
000001e0: 92b7 8f40 a579 9440 37e0 34bf cda4 70c0
000001f0: cdb6 3440 e428 ca3f 05d2 8d40 9f36 9040
00000200: 547e 21c0 cb79 41bf a705 7540 80fd 19bf
00000210: f779 b6bf 7482 2c40 e409 6c40 2ca3 9e40
00000220: 1611 cbbf 7546 8b40 15e0 9c40 2b0a 8d3f
00000230: 50fb a2bf 6924 ccbf d7e2 8740 bb14 503f
00000240: 2090 693f 02f7 4040 7025 8c40 159c 8040
00000250: b43d 8d40 5f9b ccbf 816a 2740 bc60 3740
00000260: 1e01 8840 851e 6e40 f968 9540 3036 a540
00000270: 6aa2 a740 06b1 af40 c254 32c0 a9ee 7c40
00000280: 54ac 7ec0 2299 8f40 4725 8e40 9d07 8640
00000290: 60b7 8a40 453e 8f40 701e a440 e450 2e40
000002a0: 196a 8140 d196 1840 97a1 28c0 97b1 413f
000002b0: 7da1 5d40 4a46 8c40 7214 d63f 9d2d 9540
000002c0: 252d 493f ccbd 9940 1437 af40 785d 7840
000002d0: 029a e840 29b2 4cc0 b5cb 9640 274c a940
000002e0: 15aa 44c0 b746 8940 3195 8640 04ef a440
000002f0: 2b7a 8140 c5e3 9940 6a01 5640 4ffb f13e
00000300: fe6c a540 b68d 9b40 0887 2cbf 0918 4a3e
00000310: 7527 a240 fbbe 8740 c5b8 4040 9b0e 28c0
00000320: 91f4 a8bf 8d14 b8bf 2007 8d40 4f3c 6c40
00000330: 3242 3640 7c52 8440 3023 7040 0271 8540
00000340: ba9e 8a40 fe3e 79c0 f3e9 9340 5694 9a40
00000350: a645 45bf 7c63 a140 f083 9940 f812 2e40
00000360: 7bbb 063f 9029 b0bf 4ee9 0b3f 73a6 5c40
00000370: 1a84 9a40 3ceb 41c0 7b66 c8bf 8bf1 c2bf
00000380: 9541 8a40 03a3 9240 a4a7 4040 cc43 34c0
00000390: d114 a540 4610 8a40 5183 9340 885e 9940
000003a0: f096 3340 23b4 8c40 8047 8b40 da04 9e40
000003b0: 178c 9940 7285 a340 9128 8f40 a6a2 ffbd
000003c0: 466c 4d40 6b29 5ac0 9d8f 8440 7daf 8640
000003d0: 6bba 5640 53ac f33f f0c4 13c0 44b6 07bf
000003e0: f3ec c93f 83d0 5dbf 764e 0dc0 5934 9e40
000003f0: 86dc 9b40 6192 8f40 2da9 f9bf 9700 d63e
4.210296 3.7585366 4.9481177 3.8327308 -2.3630462 4.27178 4.8879004 4.6222615
2.8806927 4.591827 -2.3156683 1.414366 -0.64669895 5.160602 4.9789853 3.9003396
4.263504 2.430531 4.9592657 1.2203546 1.7862287 4.9598327 -2.43113 -0.9239393
2.997938 4.794107 3.7157023 4.9706597 -2.9740274 -4.0686064 -1.573377 2.2424893
3.6528683 4.602867 4.822221 4.989318 4.535941 3.155768 3.7889438 3.9979715
0.06569627 4.2555013 0.39207515 4.8114886 -2.063875 3.9365785 -3.6096988 4.7869887
-1.2700909 -1.0372335 4.485757 -2.936646 4.8892574 5.1047983 -0.9052589 5.251829
4.035858 4.548674 4.671029 -2.0703688 -3.410989 5.0924516 2.8262846 -0.35025948
4.730198 4.22625 4.201936 4.6874394 -2.874537 5.3018527 -0.7195147 3.4879324
4.359507 4.871687 5.3307447 3.6507263 3.7569435 2.4229634 0.37092075 0.6279947
3.8630044 4.4801145 3.830315 3.3710861 5.021597 4.9653907 2.2101748 4.742534
4.360936 1.8126695 -0.6739285 4.7950363 2.100155 5.1048803 5.1152263 -1.9404278
-0.096122116 4.4281316 3.9955263 4.708959 -3.232609 3.9860368 3.557006 3.3264341
-3.910063 0.306653 1.0555972 5.284566 5.2318144 3.7704902 4.7800584 5.0185695
4.908939 4.189127 4.631986 1.2130268 5.424957 2.8555896 4.075242 4.6714764
4.4911585 4.639849 -0.70654625 -3.7600586 2.8236573 1.5793729 4.431887 4.5066676
-2.5233355 -0.75576466 3.82847 -0.60152435 -1.4255971 2.6954622 3.6881037 4.9574184
-1.5864589 4.3523507 4.902354 1.1018728 -1.2732944 -1.5948611 4.2464404 0.8128163
0.9123554 3.0150762 4.37957 4.019053 4.413782 -1.5984915 2.6158755 2.8652792
4.2501364 3.7206128 4.669064 5.1628647 5.238576 5.4903593 -2.7864232 3.9520667
-3.979268 4.487443 4.4420505 4.1884294 4.3348846 4.4763513 5.1287155 2.7236872
4.0442014 2.384205 -2.6348627 0.75661606 3.4629815 4.38358 1.672499 4.661818
0.7858451 4.8044186 5.4754734 3.8807049 7.2688 -3.198374 4.7123666 5.290546
-3.072881 4.289882 4.205712 5.1541767 4.046163 4.809054 3.3438363 0.47262046
5.1695547 4.8610487 -0.6739354 0.19735731 5.0673165 4.242063 3.0112774 -2.6258914
-1.3199636 -1.4381272 4.4071198 3.691181 2.8477902 4.135069 3.7521477 4.170045
4.331876 -3.8944697 4.6223083 4.8306074 -0.770594 5.043394 4.7973557 2.7199078
0.5262982 -1.3762684 0.5465287 3.4476593 4.8286257 -3.0299826 -1.5656275 -1.5229963
4.3205056 4.582399 3.010232 -2.816638 5.158791 4.3144865 4.60978 4.7927895
2.8060875 4.3969893 4.352478 4.938092 4.798351 5.1100397 4.473702 -0.124821946
3.2097335 -3.408778 4.142531 4.208922 3.355128 1.9036964 -2.308895 -0.5301249
1.5775436 -0.8664629 -2.2079139 4.94389 4.8706694 4.4866185 -1.9504753 0.41797325
